GNN/model.pth (torch, 2067 bytes, 4 tensors)

fc1.weight f4 [32, 2]
00000000: 5429 9f3e c9a0 25be dc7a ba3e a760 2c3f
00000010: d73a 283f dd90 ee3e c4fc 92be 4659 41be
00000020: 60c4 253f b4ba e13e 7c59 1a3f f323 17bf
00000030: 75b0 203f d9d1 31bf 0dae bdbe 4ac2 d03d
00000040: b323 763e 1249 2f3f 5208 013e c6d7 6bbd
00000050: 2869 ffbe 36ef 0cbf 7099 13bf 5be6 d63e
00000060: 0424 ea3e b1d6 1ebf 2b96 1a3f 2749 ed3e
00000070: efc5 76be 4e45 1ebd 451a 683e cc61 043d
00000080: 72f5 18bf 299c 1cbe 6a0c b4be b49c 86be
00000090: 9c7b 893e 4bdd c3bc efa0 93be 81a2 233f
000000a0: c84f 1fbf 45d7 353e cec2 06bf d196 2c3e
000000b0: 38d7 69be 89be 153f 772f 27bf 63eb 273e
000000c0: 0ed6 dfbe fe51 13bf 111f eabe d616 9abd
000000d0: eb30 fc3e 9d56 133f 19fb cfbe 086a c23e
000000e0: 7200 1bbd 536b 093f c9b7 293e d105 063f
000000f0: 223e 2abf e403 cabe 71a9 823e 4b37 03bf
0.31086218 -0.16174616 0.3642186 0.6733498 0.6571478 0.46594897 -0.2870847 -0.18881711
0.6475277 0.44087756 0.6029279 -0.5903923 0.6276925 -0.6946083 -0.37046853 0.10193308
0.24037056 0.6847087 0.1260083 -0.057578824 -0.49884915 -0.55052507 -0.57656 0.41972622
0.45730603 -0.62046343 0.6038539 0.46344873 -0.24098943 -0.038640313 0.22666271 0.03231983
-0.5974952 -0.15293945 -0.3516572 -0.2629143 0.2685212 -0.023909232 -0.2883372 0.63919836
-0.6223111 0.177579 -0.52641 0.16854407 -0.22836006 0.5849386 -0.653068 0.16398387
-0.43717998 -0.57546985 -0.45726827 -0.07523887 0.4925607 0.57554036 -0.4062126 0.3797152
-0.03784222 0.5367939 0.16574015 0.52352625 -0.6650106 -0.39456093 0.255199 -0.51256245

fc1.bias f4 [32]
00000000: 8295 02bf 63fb f93e 6ac4 133f ab9b 3abe
00000010: 24ff 00bf 40b5 e5be 2dc7 68be 7294 163f
00000020: 78d9 163e eb8e a5be 09c3 1f3e 0380 28bf
00000030: 3708 48be e154 b03d 088d 983e 9876 1f3f
00000040: 444c 2f3d df6c 1f3f c97f 35be 92fe a23e
00000050: 712c da3e b31d a8be 6db4 6b3d 80f5 2c3e
00000060: 6836 843e c7e9 61be 8d75 0cbf 05c6 eabe
00000070: 1652 92be e0d5 28bf 2d7d 13bf 81e7 e23e
-0.5100938 0.48824605 0.5772158 -0.18223445 -0.50389314 -0.44864845 -0.2273223 0.5882026
0.14731395 -0.323356 0.15601744 -0.6582033 -0.19534384 0.08609939 0.29795098 0.62290335
0.042797342 0.622755 -0.17724527 0.31834847 0.4261203 -0.3283516 0.057545114 0.16890526
0.2582276 -0.22061835 -0.5486687 -0.45854202 -0.28578252 -0.6595135 -0.5761288 0.44317248

fc2.weight f4 [2, 32]
00000000: 35a3 46bd 5b28 283e da56 92bd f124 8ebd
00000010: 5fa9 273e 6a0a 1dbe 3492 e0bc 10bb dbbd
00000020: c0bd ed3d d2c0 a93d 91e2 f73d cc9f b03d
00000030: 2778 87bc 588a a53d 7000 94bd a360 96bc
00000040: 00f2 bfbd 9a84 073e 4481 f0bd 264f e83d
00000050: 260b e1bd 3f93 fe3c 198e a6bc 1e7a e83d
00000060: cea2 063e b4d5 2cbc d7bb 9abc 9d68 b23d
00000070: 8225 fdbd db51 f6bd a250 703d a9cc 32bd
00000080: cbf9 91bd 0d3d 2a3e 24c5 0cbe 4f91 293d
00000090: 4494 52bd 3d8c 4ebd b68d 1abd 21dd 093e
000000a0: 45c3 90ba 0e79 ee3c 0fa2 cabd ca3f c73d
000000b0: 6931 e83d 156e 393e f236 e5bd f2fc d6bd
000000c0: b5fa 2e3d 015f 16bd 99bf 84bd 9842 223e
000000d0: 672f 0b3e df2d bcbd 7de0 343d e0fe 05be
000000e0: d7c8 c6bc c6db 753d a7ee b2bd b7b6 253e
000000f0: e477 843d 3406 1cbe 998f 7abc ca27 dc3d
-0.04849549 0.16421644 -0.07145472 -0.0694064 0.16373204 -0.15336004 -0.027413465 -0.10729039
0.116084576 0.08288731 0.12103761 0.08624229 -0.016536785 0.080830276 -0.07226646 -0.018356627
-0.0937233 0.13234177 -0.117434055 0.11343221 -0.109884545 0.031076072 -0.02033143 0.11351417
0.13148043 -0.010548998 -0.018888397 0.0871136 -0.1236067 -0.120273314 0.058670647 -0.04365221
-0.07127722 0.16624852 -0.13747078 0.041398343 -0.05141093 -0.05042671 -0.037732802 0.1346326
-0.0011044523 0.029110458 -0.098941915 0.09728964 0.11337549 0.18108399 -0.111921206 -0.10497464
0.04271956 -0.036711697 -0.06481857 0.15845716 0.13592301 -0.09188437 0.0441594 -0.13085508
-0.02426569 0.060024045 -0.087369256 0.16182981 0.0646818 -0.15236741 -0.015293025 0.10749777

fc2.bias f4 [2]
00000000: 221b 39be 8f36 97bd
-0.18076757 -0.07383453
